classifier.pth (torch, 409128 bytes, 4 tensors)

fc1.weight f4 [128, 784]
0	0x3d0d25c3	0.03445984
1	0xbcafc7f8	-0.021457657
2	0xbcc2203e	-0.023697015
3	0xbcee3093	-0.029075896
4	0x3cb6afce	0.022300627
5	0x3c346ef4	0.011012781
6	0x3c89f790	0.01684168
7	0xbcdacac5	-0.026708016
8	0x3c3584f4	0.011079062
9	0x3c38f134	0.011287976
10	0x3cc64bb6	0.024206024
11	0xbbb28424	-0.0054478813
12	0x3d37c50b	0.04486565
13	0x3bbe335e	0.0058044633
14	0x3b8452d8	0.004038196
15	0xbd018c17	-0.03162774
16	0x3c2af264	0.010433767
17	0x3d0a7287	0.033800628
18	0x3a8b92e0	0.001064863
19	0xbcbc93da	-0.02301972
20	0xbc379de0	-0.011207074
21	0x3ce3b166	0.027794551
22	0xba93fac0	-0.0011289939
23	0xbcc6b373	-0.02425549
24	0xbc00e0a0	-0.007866055
25	0x3c03f014	0.008052845
26	0xbc6c33bc	-0.014416631
27	0x3cfe841a	0.03106885
28	0xbcb62ffe	-0.022239681
29	0x3c513db0	0.012771055
30	0xbb207350	-0.0024482794
31	0xbce1bafe	-0.027554985
32	0xbcf7d885	-0.030254612
33	0x39c21968	0.00037021493
34	0xbc853295	-0.016259471
35	0x3c70b24a	0.014690945
36	0x3c1e8c8a	0.009677062
37	0x3c756094	0.014976639
38	0x3d13bca7	0.036068585
39	0x3d8a00fd	0.0673847
40	0x3d644c03	0.055736553
41	0x3dcde1f5	0.100528635
42	0x3d93ab4f	0.07210409
43	0x3ad3b539	0.0016152031
44	0xbbc9beb3	-0.0061567663
45	0x3d69970d	0.05702882
46	0x3d798adc	0.060923442
47	0x3de0cffe	0.10977171
48	0x3dbdaa53	0.092610024
49	0x3d6138f7	0.054985967
50	0xbc88c8b2	-0.016697261
51	0xbcc263e8	-0.02372928
52	0x3d03b70b	0.032156985
53	0x3cbef41e	0.023309764
54	0xbc76026e	-0.015015228
55	0xbcd40653	-0.025881922
56	0xbc649866	-0.01395235
57	0xbcc42a2a	-0.023945887
58	0xbc942bcb	-0.018087288
59	0x3c90e185	0.017685661
60	0xbc020c00	-0.007937431
61	0xbc01f112	-0.007931011
62	0xba5c6abc	-0.00084082386
63	0x3d740d6f	0.059583124
64	0x3bac637e	0.005260884
65	0x3c18952d	0.00931291
66	0x3d01ad01	0.03165913
67	0x3cb87945	0.022518763
68	0x3d472638	0.048620433
69	0x3d90b3cb	0.07065543
70	0x3d2d3472	0.042286344
71	0x3d75e497	0.060032453
72	0x3da94ff0	0.082672
73	0x3d96b6cb	0.07359084
74	0x3d267517	0.04063901
75	0x3d93d874	0.072190195
76	0x3dda4e09	0.10659415
77	0x3ddd1563	0.10795095
78	0x3cdad34e	0.026712086
79	0x3ca9c924	0.020725794
80	0x3ca1af04	0.019736774
81	0xbd235254	-0.039873436
82	0x3b1cffe0	0.0023956224
83	0xbd0ad604	-0.033895507
84	0xbc691220	-0.014225513
85	0xbb566a80	-0.0032717288
86	0x3d2bddba	0.0419595
87	0x3cde87e2	0.027164403
88	0xbba5f73b	-0.0050648726
89	0xbaefafaa	-0.0018286605
90	0xbc0ddd93	-0.008658784
91	0xbb8dda09	-0.0043289703
92	0xbcb5a28c	-0.022172235
93	0xbdd053ff	-0.10172271
94	0xbd5c7bb4	-0.05382891
95	0xbcabfcee	-0.02099463
96	0xbb24cb86	-0.0025145723
97	0xbd0d2ffe	-0.034469597
98	0x3d7e72c9	0.062121186
99	0x3d1d1106	0.038346313
100	0x3ddaee48	0.1068998
101	0x3da5d107	0.080965094
102	0x3e05cf75	0.1306742
103	0x3db07810	0.0861665
104	0x3dff5b66	0.12468605
105	0x3d9dd3bf	0.07706403
106	0x3d90cd18	0.070703685
107	0x3d8a62ec	0.06757149
108	0x3dc390e2	0.095491186
109	0x3d89e4ab	0.06733068
110	0x3d53a323	0.05166925
111	0xbd08cda8	-0.033399254
112	0xbcf438b5	-0.029812196
113	0x39e194f7	0.00043026332
114	0x3d0a0827	0.03369918
115	0x3cb298b6	0.021801334
116	0xbc90ebe1	-0.0176906
117	0x3d1fa324	0.038973942
118	0xbcc2b020	-0.023765624
119	0xbd92a8fa	-0.07161136
120	0xbda4b9eb	-0.080432735
121	0xbdbb8c3f	-0.09157609
122	0xbd23362c	-0.039846584
123	0xbca2cfeb	-0.019874534
124	0xbd280d1a	-0.04102812
125	0xbc9ac640	-0.018893361
126	0xbceed5c7	-0.029154671
127	0xbc521a77	-0.0128236925
128	0x3dafe598	0.085887134
129	0x3d1e8bfa	0.03870771
130	0x3c805757	0.015666647
131	0x3cada69f	0.021197615
132	0x3c769c9f	0.01505199
133	0x3d82a3db	0.06378909
134	0x3dd38cc8	0.10329586
135	0x3da247bd	0.07923839
136	0x3dc9e465	0.09858016
137	0x3d5cc305	0.053896923
138	0xbccd2166	-0.02504034
139	0xbd1d726e	-0.038439207
140	0xb9910080	-0.00027656928
141	0x3d026db5	0.031842906
142	0x3d51c684	0.05121471
143	0x3b8e97e8	0.0043516047
144	0x3b83919b	0.0040151603
145	0xbc656f5d	-0.014003602
146	0x3b934ebc	0.00449547
147	0xbb829667	-0.0039852145
148	0xbd856653	-0.065136574
149	0xbc1b6a67	-0.0094858175
150	0x3cdc2237	0.026871784
151	0x3d8d5507	0.06900983
152	0x3d34a1bf	0.044099566
153	0x3c160f05	0.009158854
154	0xbd0b8fc4	-0.034072652
155	0x386525ab	5.4632936e-05
156	0x3caa8af3	0.02081821
157	0x3caa6102	0.02079821
158	0x3d7ea542	0.06216932
159	0x3adfe80e	0.0017082707
160	0x3cd12cc3	0.02553404
161	0x3d06b03f	0.032882925
162	0x3dc5e4d5	0.09662787
163	0x3d9cfdad	0.07665572
164	0x3dbb034c	0.09131488
165	0x3da430c3	0.08017113
166	0x3cfbb546	0.030726086
167	0xbc998ce8	-0.018743947
168	0x3c7172d0	0.014736846
169	0x3c8128a5	0.015766451
170	0xbc8d2dc8	-0.017233744
171	0xbd9539a8	-0.07286388
172	0x3c2a6dd4	0.010402162
173	0x3c8da76d	0.017291749
174	0xbb144774	-0.0022625597
175	0xbbfa40c5	-0.0076371157
176	0xbb0ca4b2	-0.002146047
177	0x3cfb84f2	0.030703042
178	0xbb05972f	-0.0020384302
179	0x3ca43ba4	0.02004797
180	0x3cf090d2	0.02936593
181	0x3d5ea612	0.054357596
182	0x3c3364ec	0.010949355
183	0xbce4b37a	-0.027917612
184	0x3cc6a571	0.02424881
185	0x3c5be653	0.013421613
186	0x3d760242	0.060060747
187	0x3d5f4caf	0.05451649
188	0x3d72c46d	0.059269357
189	0x3d14edd1	0.036359612
190	0x3d9f4ac4	0.07777932
191	0x3db3f4d8	0.087869346
192	0x3d8b10dc	0.06790325
193	0x3de1a6bd	0.11018131
194	0x3ca0a15c	0.019608192
195	0xbc4a1591	-0.012334243
196	0xbcc4f670	-0.024043292
197	0xbcb9b454	-0.022668995
198	0xbd18168f	-0.03713089
199	0xbd333b08	-0.04375747
200	0xbb977e29	-0.0046231938
201	0xbbe32ff5	-0.006933207
202	0xbc92f5f1	-0.01793954
203	0x3cd2d98c	0.0257385
204	0xb9275bf6	-0.00015960619
205	0x3d289fa3	0.041167866
206	0x3bebbcbf	0.007194131
207	0x3cb88331	0.022523494
208	0x3c3ebc1f	0.011641531
209	0x3d3d53e1	0.04622257
210	0x3d9f1ebe	0.077695355
211	0x3d089982	0.03334952
212	0x3d258c62	0.040417083
213	0x3d282680	0.04105234
214	0x3ca9ab89	0.020711677
215	0x3d4d7a12	0.050165243
216	0x3d9d0f3e	0.07668923
217	0x3d98534c	0.074377626
218	0x3d88d448	0.066811144
219	0x3d52a035	0.051422317
220	0x3d641eb1	0.055693332
221	0x3d9c7add	0.07640622
222	0x3c265641	0.0101524005
223	0x3d1501ce	0.036378674
224	0x3cd66e42	0.026175622
225	0xbda2de39	-0.07952542
226	0xbcb40a67	-0.021977616
227	0xbd33804d	-0.04382353
228	0xbd91d13d	-0.07119987
229	0xbc52cd07	-0.012866265
230	0x3b5c510d	0.0033617646
231	0xbcad57b9	-0.021159993
232	0xbb8578b3	-0.0040732264
233	0xbc666035	-0.0140610235
234	0xbcf592da	-0.02997725
235	0xbcad5f42	-0.021163587
236	0xbc96677e	-0.018359896
237	0x37bd4f38	2.2567445e-05
238	0x3d04ca02	0.032419212
239	0x3b534634	0.003223789
240	0xbc023eea	-0.00794957
241	0xbc9aa772	-0.018878672
242	0xbcdfbf26	-0.027312826
243	0xbd3c2b4b	-0.045939725
244	0x3cea9d2f	0.028639404
245	0x3b2e0c38	0.0026557576
246	0xbb45b9b8	-0.0030170511
247	0xbcc193eb	-0.023630103
248	0x3c94e0b0	0.018173546
249	0x3d4ef0d2	0.050522633
250	0x3c9bf49e	0.019037541
251	0x3b428e5a	0.00296869
252	0x3c667648	0.014066286
253	0xbd3e35d7	-0.046438064
254	0xbc9ebcb0	-0.019377083
255	0xbd8e55b0	-0.06949937

fc1.bias f4 [128]
0	0xbc0ff962	-0.008787485
1	0xbd8a6ff0	-0.06759632
2	0x3d4ac70d	0.049506236
3	0xbb480c49	-0.00305249
4	0x3b9471b0	0.004530154
5	0xbd5bdb40	-0.05367589
6	0x3d66ded6	0.056364857
7	0x3ba49110	0.0050221756
8	0xbc843af9	-0.016141402
9	0x3e49c621	0.19704486
10	0xbc62d19d	-0.013843921
11	0x3d02cea3	0.031935345
12	0x3cad67ce	0.021167662
13	0x3a95e7a0	0.0011436827
14	0x3d520acd	0.05127983
15	0x3d747740	0.05968404
16	0xbd2ca3a8	-0.042148262
17	0x3e0a4d9b	0.13506167
18	0x3c8f56a6	0.017497372
19	0x3da4c9e2	0.080463186
20	0x3dab70ac	0.083711
21	0xbc7ad1a5	-0.015308772
22	0xbd197042	-0.037460573
23	0xbd1e781e	-0.03868877
24	0x3e2e26ec	0.17007035
25	0x3d85ea07	0.06538778
26	0x3db9cd98	0.09072417
27	0xbc2e6ca4	-0.010646019
28	0x3cd921f8	0.026505455
29	0x3bd52fd1	0.0065059443
30	0xbd546a63	-0.05185927
31	0x3c2758f0	0.010214075
32	0x3d6a6493	0.05722482
33	0x3d82cea3	0.06387069
34	0x3db9fd9a	0.09081574
35	0x3e1583c8	0.14601052
36	0x3e02b937	0.12765966
37	0x3d093072	0.033493467
38	0x3e1659e0	0.14682722
39	0x3da6bf22	0.081419244
40	0x3d827dbe	0.0637164
41	0xbced7ae6	-0.028989267
42	0x3d0a8d6e	0.033826284
43	0x3e077d7d	0.13231464
44	0xbd4f25fa	-0.050573327
45	0x3d808a54	0.06276384
46	0xbe1ab77b	-0.15109055
47	0x3d3b248e	0.04568916
48	0xbc405379	-0.011738651
49	0x3da426d5	0.08015219
50	0x3d21c028	0.039489895
51	0xbd2d176c	-0.042258665
52	0x3cd2e903	0.025745874
53	0x3d96c698	0.073620975
54	0x3dde86a3	0.10865524
55	0x3d6f5331	0.058428947
56	0x3d048098	0.0323492
57	0x3daba3f3	0.0838088
58	0xbd01e9cd	-0.03171711
59	0x3ca8d27f	0.020608185
60	0x3e0457b2	0.12924078
61	0xbd26e1a4	-0.04074253
62	0xbd8fc0a0	-0.07019162
63	0x3de142c4	0.10999063
64	0xbd4044ec	-0.04694073
65	0xbd9cbc82	-0.076531425
66	0xbb5d746a	-0.0033791312
67	0xbd509ee6	-0.050932787
68	0xbc9b2604	-0.018939026
69	0xbd1da0b2	-0.03848333
70	0x3d9b6421	0.075874574
71	0x3de32c51	0.11092437
72	0xbcd229a2	-0.025654618
73	0x3dc16a72	0.09444131
74	0xbd34e46f	-0.044163164
75	0xbd18f3dc	-0.037341937
76	0x3e21ccc8	0.15800774
77	0xbcd34cf3	-0.025793528
78	0xbbfd6da3	-0.007734017
79	0xbdaf5c45	-0.08562521
80	0x3d8d8e43	0.069119
81	0xbd1c40f1	-0.03814787
82	0xbcd88101	-0.026428701
83	0xbcd55762	-0.026042644
84	0x3e1b32cc	0.15156096
85	0x3be962ff	0.007122397
86	0x3c65b583	0.014020327
87	0x3e263322	0.16230443
88	0xbdf123ae	-0.117743835
89	0xbd63a4c2	-0.055577047
90	0xbc95c899	-0.018284129
91	0x3d878bc7	0.06618457
92	0xbdabee1c	-0.08395025
93	0xbd108441	-0.035282377
94	0xbc6e8722	-0.014558585
95	0x3d7e2061	0.062042598
96	0xbc01f679	-0.007932299
97	0x3db22c69	0.08699877
98	0xbd0440a5	-0.032288212
99	0x3dc706c1	0.09718085
100	0xbd97d44c	-0.07413539
101	0x3b4144b5	0.0029490415
102	0x3d8950bc	0.06704852
103	0x3e16acdd	0.1471438
104	0xbd4b65b9	-0.049657557
105	0x3d3c1c7a	0.045925595
106	0x3dc4b102	0.09604074
107	0x3ccf5be0	0.025312364
108	0x3cc447a9	0.023959951
109	0xbd30d4e6	-0.043171786
110	0x3cfa9bd8	0.03059189
111	0x3d18ea2d	0.037332702
112	0xbdab7904	-0.08372691
113	0x3c2d9147	0.010593719
114	0xbd266cde	-0.040631168
115	0x3beec66b	0.007286837
116	0x3a97164d	0.0011527032
117	0x3d55bf3d	0.052184332
118	0xbdce1baf	-0.10063874
119	0xbd0b19b3	-0.033960056
120	0x3db71e4b	0.08941325
121	0x3d934359	0.0719058
122	0x3d027038	0.0318453
123	0x3db8a840	0.09016466
124	0x3dae79cd	0.085193254
125	0x3cb39a66	0.021924209
126	0x3da22257	0.07916706
127	0x3daf7745	0.08567671

fc2.weight f4 [10, 128]
0	0xbe491fd3	-0.19641046
1	0xbe16593c	-0.14682478
2	0xbe8e47d6	-0.2778918
3	0xbd82d707	-0.063886695
4	0x3dabc876	0.08387844
5	0x3e17c8d9	0.14822711
6	0xbe8443ec	-0.2583307
7	0x3c02e9be	0.007990299
8	0x3d8c0f08	0.068388045
9	0x3cc28202	0.023743633
10	0xbe3ff3e2	-0.18745378
11	0xbeaf5014	-0.34240782
12	0xbdf1e04d	-0.1181036
13	0xbde44b39	-0.1114716
14	0xbdeb2018	-0.11480731
15	0x3e19036f	0.14942716
16	0x3cc52921	0.024067463
17	0xbe389b71	-0.18028046
18	0xbdb91a5d	-0.090382315
19	0xbc7a6ee0	-0.015285224
20	0xbc026e70	-0.007960901
21	0x3c3ac52f	0.011399551
22	0x3dcaefb7	0.09909003
23	0x3e2cc83b	0.16873257
24	0xbe1ed2d4	-0.15510112
25	0x3df7d0b3	0.12100353
26	0xbe9de8bd	-0.30841628
27	0x3e0518a9	0.12997688
28	0xbe7c5868	-0.246431
29	0x3da0a141	0.07843257
30	0x3dfc27ca	0.12312277
31	0xbdd126fe	-0.10212515
32	0x3df2e459	0.1185996
33	0xbc918842	-0.017765168
34	0x3dafc981	0.08583356
35	0xbe10dbf7	-0.1414641
36	0x3d4b838c	0.049686
37	0xbeb21b49	-0.34786442
38	0xbdbd7ca0	-0.09252286
39	0x3d488859	0.048958156
40	0xbb8691f0	-0.0041067526
41	0x3d572586	0.05252602
42	0xbded49fe	-0.115863785
43	0x3baa7d77	0.005202945
44	0x3dcb1010	0.09915173
45	0xbd142994	-0.036172464
46	0xbdd9d2d7	-0.10635918
47	0xbe8edcb5	-0.2790276
48	0x3e1a5e60	0.15075064
49	0x396756c6	0.00022062202
50	0x3dd0ffe0	0.10205054
51	0xbe094115	-0.13403733
52	0xbd5144f5	-0.051091153
53	0xbe2dc589	-0.16969885
54	0x3e0686cd	0.1313736
55	0xbe56d037	-0.20977865
56	0xbe7f0200	-0.24903107
57	0xbddb97b1	-0.10722292
58	0xbd4e1a9d	-0.05031835
59	0xbd37ecff	-0.04490375
60	0xbe0b7db5	-0.13622172
61	0x3e0a4c65	0.13505705
62	0xbe83de59	-0.25755575
63	0x3d3d75be	0.046254866
64	0x3c9ea736	0.019366842
65	0xbd47b139	-0.048752997
66	0x3db77f0f	0.089597814
67	0xbdd0c1b5	-0.10193197
68	0x3d976c91	0.07393754
69	0xbce28418	-0.027650878
70	0xbe5b3a4d	-0.21408959
71	0xbe736a6d	-0.23771067
72	0xbe1bba81	-0.15207864
73	0xbe010817	-0.12600742
74	0xbd66e56f	-0.05637115
75	0xbe2608cc	-0.16214293
76	0x3e16d007	0.14727794
77	0xbdc3ec17	-0.09566515
78	0xbdb95cd7	-0.09050911
79	0x3d06b444	0.03288676
80	0x3de821d9	0.11334581
81	0xbcd394a2	-0.02582771
82	0x3cc0e1c7	0.023545159
83	0x3dc016b4	0.0937933
84	0xbdfe1adf	-0.12407469
85	0x3e0637d5	0.13107236
86	0xbe34a60a	-0.17641464
87	0xbeb5bde1	-0.3549643
88	0x3dba8e46	0.09109168
89	0xbdcea7df	-0.100906126
90	0x3dad041b	0.08448049
91	0xbca531a6	-0.020165276
92	0xbd2ef710	-0.042716086
93	0x3cfc9047	0.030830516
94	0xbdb814ad	-0.089883186
95	0x3ddae04f	0.10687315
96	0xbd54941d	-0.051899064
97	0xbdcd1405	-0.10013584
98	0xbd9372c7	-0.071996264
99	0xbd6aaa76	-0.05729147
100	0x3dda4228	0.106571496
101	0xbd1b71b7	-0.037950244
102	0xbe6c2bd9	-0.23063602
103	0x3dae7818	0.08519
104	0x3b81151a	0.003939283
105	0xbe79aee0	-0.24383116
106	0xbe3c2962	-0.18375161
107	0xbdb9222b	-0.0903972
108	0x3dbbd3b2	0.09171237
109	0x3e017624	0.12642723
110	0x3d3e9ded	0.04653733
111	0x3e2acba3	0.16679244
112	0xbd0ea6a0	-0.034826875
113	0xbceb53c6	-0.02872647
114	0xbe1d443a	-0.15358058
115	0x3de19a61	0.110157736
116	0x3d1506ee	0.03638356
117	0x3e3fcc61	0.18730308
118	0xbe42796f	-0.18991636
119	0x3da76526	0.081735894
120	0x3d19f85b	0.037590366
121	0x3e1b46b1	0.15163685
122	0x3d40877b	0.047004204
123	0xbe1a78a2	-0.1508508
124	0xbdc811af	-0.09768998
125	0x3d5dd5f5	0.054159123
126	0x3de8fc9f	0.11376309
127	0x3db345ca	0.087535456
128	0xbd2b8ea4	-0.04188408
129	0x3ccf47c7	0.02530278
130	0xbda34340	-0.07971811
131	0xbce7a747	-0.028278006
132	0xbe4cb02f	-0.19989084
133	0xbe02e99a	-0.12784424
134	0x3e1a8cdf	0.150928
135	0xbd396975	-0.045266587
136	0x3dc097be	0.094039425
137	0x3e6d1709	0.23153318
138	0x3dc696bb	0.09696718
139	0x3df73d79	0.12072272
140	0x3b2a0a44	0.002594606
141	0xbdea2030	-0.114319205
142	0xbd856c74	-0.065148264
143	0x3b9ea262	0.004841135
144	0xbe86fb6e	-0.263637
145	0x3e1b4fe1	0.1516719
146	0xbde4aaf7	-0.111654215
147	0xbdfe7501	-0.124246605
148	0xbdedb897	-0.11607473
149	0x3d48f7c7	0.049064424
150	0xbe38753e	-0.18013474
151	0xbe107c1e	-0.14109847
152	0xbe29d11e	-0.16583678
153	0xbdb45900	-0.08806038
154	0x3df7aef1	0.12093914
155	0xbe590de2	-0.21196702
156	0x3d632e11	0.055463854
157	0x3d09a6fa	0.033606507
158	0xbe5dbaf8	-0.21653354
159	0x3c0d4d0b	0.0086243255
160	0xbdd98c3b	-0.1062245
161	0xbe2ca94c	-0.16861457
162	0xbd938794	-0.07203594
163	0x3e2ab56a	0.16670766
164	0x3cfca3ec	0.030839883
165	0x3df12864	0.11775282
166	0x3de625b9	0.11237664
167	0x3df4317b	0.119235
168	0xbcc83112	-0.024437461
169	0xbe6dac93	-0.23210363
170	0xbd966b5e	-0.073446974
171	0xbea1552e	-0.315103
172	0xbe173909	-0.14767851
173	0xbe264cc0	-0.16240215
174	0xbe0b8d5f	-0.13628148
175	0xbda6deaf	-0.08147942
176	0xbe374c8a	-0.17900291
177	0x3cd5cb74	0.02609799
178	0xbe0f9768	-0.140226
179	0xbe3f26ef	-0.18667196
180	0xbdf8ae94	-0.12142673
181	0xbea0190a	-0.31269103
182	0x3e2cf304	0.16889578
183	0x3e096dc9	0.13420786
184	0xbe14aca9	-0.1451899
185	0xbe5fb4fe	-0.21846387
186	0x3d85bdf5	0.06530372
187	0x3cbf8893	0.023380553
188	0xbe6b7882	-0.22995189
189	0xbdf44ce6	-0.1192873
190	0xbb2d30ee	-0.002642687
191	0x3e090cf9	0.13383855
192	0xbe986b55	-0.29769388
193	0xbcd82fd0	-0.026389986
194	0x3d279082	0.040909298
195	0x3dee33d6	0.11630981
196	0xbe753963	-0.23947673
197	0xbdb00646	-0.085949466
198	0x3e12e6cb	0.14345853
199	0x3e69a50b	0.22816865
200	0xbbaadbf8	-0.0052142106
201	0x3e0c2ed0	0.13689733
202	0xbda0a16b	-0.07843288
203	0xbe7e3ee5	-0.2482868
204	0x3cfaf710	0.030635387
205	0x3df6e183	0.12054732
206	0x3dad3698	0.084576786
207	0x38c7f24a	9.534189e-05
208	0xbe5ead16	-0.21745715
209	0x3d9455f9	0.072429605
210	0x3d9aabea	0.07552321
211	0xbde36f53	-0.11105218
212	0x3dfba627	0.122875504
213	0x3e1e33ae	0.15449402
214	0x3d1b0e74	0.03785558
215	0x3e2b266b	0.16713874
216	0x3e0ba360	0.13636541
217	0xbb6a8246	-0.0035783215
218	0xbda83f19	-0.0821516
219	0xbcdac813	-0.026706731
220	0x3da39510	0.07987416
221	0xbe818dd5	-0.25303522
222	0x3db56fd0	0.08859217
223	0x3dfffc1e	0.124992594
224	0x3d0f3af9	0.03496835
225	0x3db7e575	0.08979312
226	0x3d8bc24f	0.06824171
227	0xbe4c87d9	-0.19973697
228	0xbe493679	-0.19649686
229	0xbdaf0e03	-0.085475944
230	0x3da96fbe	0.08273266
231	0x3e485643	0.19564156
232	0xbe692c38	-0.22770774
233	0x3e2d0124	0.16894966
234	0xbd5781e3	-0.052614104
235	0xbc493808	-0.012281425
236	0xbe0ec48e	-0.13942167
237	0x3d9f3f64	0.07775763
238	0xbdbd297e	-0.0923643
239	0x3c43a49e	0.011941103
240	0x3db9fdd2	0.090816155
241	0x3e0db077	0.13836847
242	0x3dc673a7	0.09690028
243	0x3dfdb427	0.12387877
244	0xbdb78b0b	-0.08962067
245	0x3d5b5271	0.05354542
246	0xbe0c0bcc	-0.13676375
247	0x3d7379d6	0.059442364
248	0xbd8f38bc	-0.06993243
249	0xbe48c469	-0.19606175
250	0x3d8c1778	0.06840414
251	0x3d8033d7	0.06259888
252	0x3e154fd4	0.14581233
253	0x3d950e3d	0.07278106
254	0xbdabbe65	-0.08385924
255	0x3da2f483	0.07956793

fc2.bias f4 [10]
0	0xbdf4a5e8	-0.119457066
1	0x3d8cc144	0.068728
2	0x3d11e90a	0.035622634
3	0xbe186ce4	-0.14885288
4	0x3d7e3acd	0.062067796
5	0x3de6b984	0.11265853
6	0x3aa000d7	0.0012207282
7	0x3dd3a871	0.10334862
8	0xbdb3373d	-0.0875077
9	0x3d565845	0.052330274
